…
---------------------------------- End ----------------------------------

Recogntion:  T
Probability:  [3.65611348e-04 1.52747828e-02 2.81929255e-03 2.61217644e-03
 1.05069741e-03 9.59113486e-01 1.87639534e-02]

==============================================================================================

											+-----+
											| RNN |
											+-----+

Model: "sequential_1"
_________________________________________________________________
Layer (type)                 Output Shape              Param #   
=================================================================
simple_rnn_1 (SimpleRNN)     (None, 1, 128)            56448     
_________________________________________________________________
simple_rnn_2 (SimpleRNN)     (None, 1, 128)            32896     
_________________________________________________________________
simple_rnn_3 (SimpleRNN)     (None, 128)               32896     
_________________________________________________________________
dropout_1 (Dropout)          (None, 128)               0         
_________________________________________________________________
dense_1 (Dense)              (None, 32)                4128      
_________________________________________________________________
dense_2 (Dense)              (None, 7)                 231       
=================================================================
Total params: 126,599
Trainable params: 126,599
Non-trainable params: 0
_________________________________________________________________
None
-------------------------------- Start --------------------------------
Epoch 1/1
481/481 [==============================] - 1s 1ms/step - loss: 0.3654 - accuracy: 0.8663
54/54 [==============================] - 0s 2ms/step
…
---------------------------------- End ----------------------------------

Recogntion:  T
Probability:  [2.0635129e-05 3.8877560e-03 8.7301212e-04 9.7658613e-04 8.3718165e-05
 9.9281365e-01 1.3445494e-03]

==============================================================================================

											+-----+
											| CNN |
											+-----+

Model: "sequential_1"
_________________________________________________________________
Layer (type)                 Output Shape              Param #   
=================================================================
conv2d_1 (Conv2D)            (None, 186, 27, 8)        1360      
_________________________________________________________________
batch_normalization_1 (Batch (None, 186, 27, 8)        32        
_________________________________________________________________
activation_1 (Activation)    (None, 186, 27, 8)        0         
_________________________________________________________________
conv2d_2 (Conv2D)            (None, 174, 15, 8)        10824     
_________________________________________________________________
batch_normalization_2 (Batch (None, 174, 15, 8)        32        
_________________________________________________________________
activation_2 (Activation)    (None, 174, 15, 8)        0         
_________________________________________________________________
max_pooling2d_1 (MaxPooling2 (None, 87, 15, 8)         0         
_________________________________________________________________
conv2d_3 (Conv2D)            (None, 75, 3, 8)          10824     
_________________________________________________________________
batch_normalization_3 (Batch (None, 75, 3, 8)          32        
_________________________________________________________________
activation_3 (Activation)    (None, 75, 3, 8)          0         
_________________________________________________________________
conv2d_4 (Conv2D)            (None, 74, 2, 8)          264       
_________________________________________________________________
batch_normalization_4 (Batch (None, 74, 2, 8)          32        
_________________________________________________________________
activation_4 (Activation)    (None, 74, 2, 8)          0         
_________________________________________________________________
max_pooling2d_2 (MaxPooling2 (None, 37, 2, 8)          0         
_________________________________________________________________
flatten_1 (Flatten)          (None, 592)               0         
_________________________________________________________________
dense_1 (Dense)              (None, 64)                37952     
_________________________________________________________________
batch_normalization_5 (Batch (None, 64)                256       
_________________________________________________________________
activation_5 (Activation)    (None, 64)                0         
_________________________________________________________________
dropout_1 (Dropout)          (None, 64)                0         
_________________________________________________________________
dense_2 (Dense)              (None, 7)                 455       
=================================================================
Total params: 62,063
Trainable params: 61,871
Non-trainable params: 192
_________________________________________________________________
None
-------------------------------- Start --------------------------------
Epoch 1/1
428/428 [==============================] - 9s 20ms/step - loss: 0.4544 - accuracy: 0.8401
107/107 [==============================] - 0s 4ms/step
…
---------------------------------- End ----------------------------------

Recogntion:  T
Probability:  [2.2587930e-03 3.2371995e-03 7.7711127e-04 9.9809906e-03 1.2457708e-03
 9.7396427e-01 8.5357940e-03]

==============================================================================================

											+-----+
											| VGG |
											+-----+

 Model: "sequential_1"
_________________________________________________________________
Layer (type)                 Output Shape              Param #   
=================================================================
conv2d_1 (Conv2D)            (None, 500, 1000, 64)     640       
_________________________________________________________________
conv2d_2 (Conv2D)            (None, 500, 1000, 64)     36928     
_________________________________________________________________
max_pooling2d_1 (MaxPooling2 (None, 250, 500, 64)      0         
_________________________________________________________________
conv2d_3 (Conv2D)            (None, 250, 500, 128)     73856     
_________________________________________________________________
conv2d_4 (Conv2D)            (None, 250, 500, 128)     147584    
_________________________________________________________________
max_pooling2d_2 (MaxPooling2 (None, 125, 250, 128)     0         
_________________________________________________________________
conv2d_5 (Conv2D)            (None, 125, 250, 256)     295168    
_________________________________________________________________
conv2d_6 (Conv2D)            (None, 125, 250, 256)     590080    
_________________________________________________________________
conv2d_7 (Conv2D)            (None, 125, 250, 256)     590080    
_________________________________________________________________
max_pooling2d_3 (MaxPooling2 (None, 62, 125, 256)      0         
_________________________________________________________________
conv2d_8 (Conv2D)            (None, 62, 125, 512)      1180160   
_________________________________________________________________
conv2d_9 (Conv2D)            (None, 62, 125, 512)      2359808   
_________________________________________________________________
conv2d_10 (Conv2D)           (None, 62, 125, 512)      2359808   
_________________________________________________________________
max_pooling2d_4 (MaxPooling2 (None, 31, 62, 512)       0         
_________________________________________________________________
conv2d_11 (Conv2D)           (None, 31, 62, 512)       2359808   
_________________________________________________________________
conv2d_12 (Conv2D)           (None, 31, 62, 512)       2359808   
_________________________________________________________________
conv2d_13 (Conv2D)           (None, 31, 62, 512)       2359808   
_________________________________________________________________
max_pooling2d_5 (MaxPooling2 (None, 15, 31, 512)       0         
_________________________________________________________________
flatten_1 (Flatten)          (None, 238080)            0         
_________________________________________________________________
dense_1 (Dense)              (None, 4096)              975179776 
_________________________________________________________________
dropout_1 (Dropout)          (None, 4096)              0         
_________________________________________________________________
dense_2 (Dense)              (None, 4096)              16781312  
_________________________________________________________________
dropout_2 (Dropout)          (None, 4096)              0         
_________________________________________________________________
dense_3 (Dense)              (None, 1000)              4097000   
_________________________________________________________________
dense_4 (Dense)              (None, 7)                 7007      
=================================================================
Total params: 1,010,778,631
Trainable params: 1,010,778,631
Non-trainable params: 0
_________________________________________________________________

----------------------------------------------------------------------------------------------

Model: "sequential_1"
_________________________________________________________________
Layer (type)                 Output Shape              Param #   
=================================================================
conv2d_1 (Conv2D)            (None, 500, 1000, 64)     640       
_________________________________________________________________
max_pooling2d_1 (MaxPooling2 (None, 250, 500, 64)      0         
_________________________________________________________________
conv2d_2 (Conv2D)            (None, 250, 500, 128)     73856     
_________________________________________________________________
max_pooling2d_2 (MaxPooling2 (None, 125, 250, 128)     0         
_________________________________________________________________
conv2d_3 (Conv2D)            (None, 125, 250, 256)     295168    
_________________________________________________________________
conv2d_4 (Conv2D)            (None, 125, 250, 256)     590080    
_________________________________________________________________
max_pooling2d_3 (MaxPooling2 (None, 62, 125, 256)      0         
_________________________________________________________________
conv2d_5 (Conv2D)            (None, 62, 125, 512)      1180160   
_________________________________________________________________
conv2d_6 (Conv2D)            (None, 62, 125, 512)      2359808   
_________________________________________________________________
max_pooling2d_4 (MaxPooling2 (None, 31, 62, 512)       0         
_________________________________________________________________
conv2d_7 (Conv2D)            (None, 31, 62, 512)       2359808   
_________________________________________________________________
conv2d_8 (Conv2D)            (None, 31, 62, 512)       2359808   
_________________________________________________________________
max_pooling2d_5 (MaxPooling2 (None, 15, 31, 512)       0         
_________________________________________________________________
flatten_1 (Flatten)          (None, 238080)            0         
_________________________________________________________________
dense_1 (Dense)              (None, 4096)              975179776 
_________________________________________________________________
dropout_1 (Dropout)          (None, 4096)              0         
_________________________________________________________________
dense_2 (Dense)              (None, 4096)              16781312  
_________________________________________________________________
dropout_2 (Dropout)          (None, 4096)              0         
_________________________________________________________________
dense_3 (Dense)              (None, 1000)              4097000   
_________________________________________________________________
dense_4 (Dense)              (None, 7)                 7007      
=================================================================
Total params: 1,005,284,423
Trainable params: 1,005,284,423
Non-trainable params: 0
_________________________________________________________________

----------------------------------------------------------------------------------------------

Model: "sequential_1"
_________________________________________________________________
Layer (type)                 Output Shape              Param #   
=================================================================
conv2d_1 (Conv2D)            (None, 180, 400, 64)      640       
_________________________________________________________________
conv2d_2 (Conv2D)            (None, 180, 400, 64)      36928     
_________________________________________________________________
max_pooling2d_1 (MaxPooling2 (None, 90, 200, 64)       0         
_________________________________________________________________
conv2d_3 (Conv2D)            (None, 90, 200, 128)      73856     
_________________________________________________________________
conv2d_4 (Conv2D)            (None, 90, 200, 128)      147584    
_________________________________________________________________
max_pooling2d_2 (MaxPooling2 (None, 45, 100, 128)      0         
_________________________________________________________________
conv2d_5 (Conv2D)            (None, 45, 100, 256)      295168    
_________________________________________________________________
conv2d_6 (Conv2D)            (None, 45, 100, 256)      590080    
_________________________________________________________________
conv2d_7 (Conv2D)            (None, 45, 100, 256)      590080    
_________________________________________________________________
max_pooling2d_3 (MaxPooling2 (None, 22, 50, 256)       0         
_________________________________________________________________
conv2d_8 (Conv2D)            (None, 22, 50, 512)       1180160   
_________________________________________________________________
conv2d_9 (Conv2D)            (None, 22, 50, 512)       2359808   
_________________________________________________________________
conv2d_10 (Conv2D)           (None, 22, 50, 512)       2359808   
_________________________________________________________________
max_pooling2d_4 (MaxPooling2 (None, 11, 25, 512)       0         
_________________________________________________________________
conv2d_11 (Conv2D)           (None, 11, 25, 512)       2359808   
_________________________________________________________________
conv2d_12 (Conv2D)           (None, 11, 25, 512)       2359808   
_________________________________________________________________
conv2d_13 (Conv2D)           (None, 11, 25, 512)       2359808   
_________________________________________________________________
max_pooling2d_5 (MaxPooling2 (None, 5, 12, 512)        0         
_________________________________________________________________
flatten_1 (Flatten)          (None, 30720)             0         
_________________________________________________________________
dense_1 (Dense)              (None, 4096)              125833216 
_________________________________________________________________
dropout_1 (Dropout)          (None, 4096)              0         
_________________________________________________________________
dense_2 (Dense)              (None, 4096)              16781312  
_________________________________________________________________
dropout_2 (Dropout)          (None, 4096)              0         
_________________________________________________________________
dense_3 (Dense)              (None, 1000)              4097000   
_________________________________________________________________
dense_4 (Dense)              (None, 7)                 7007      
=================================================================
Total params: 161,432,071
Trainable params: 161,432,071
Non-trainable params: 0
_________________________________________________________________
None
-------------------------------- Start --------------------------------
Epoch 1/1
  8/481 [..............................] - ETA: 10:54 - loss: 0.4100 - accuracy: 16/481 [.....
…
