…
---------------------------------- End ----------------------------------

Recogntion:  T
Probability:  [2.0635129e-05 3.8877560e-03 8.7301212e-04 9.7658613e-04 8.3718165e-05
 9.9281365e-01 1.3445494e-03]

==============================================================================================

											+-----+
											| CNN |
											+-----+

Model: "sequential_1"
_________________________________________________________________
Layer (type)                 Output Shape              Param #   
=================================================================
conv2d_1 (Conv2D)            (None, 186, 27, 8)        1360      
_________________________________________________________________
batch_normalization_1 (Batch (None, 186, 27, 8)        32        
_________________________________________________________________
activation_1 (Activation)    (None, 186, 27, 8)        0         
_________________________________________________________________
conv2d_2 (Conv2D)            (None, 174, 15, 8)        10824     
_________________________________________________________________
batch_normalization_2 (Batch (None, 174, 15, 8)        32        
_________________________________________________________________
activation_2 (Activation)    (None, 174, 15, 8)        0         
_________________________________________________________________
max_pooling2d_1 (MaxPooling2 (None, 87, 15, 8)         0         
_________________________________________________________________
conv2d_3 (Conv2D)            (None, 75, 3, 8)          10824     
_________________________________________________________________
batch_normalization_3 (Batch (None, 75, 3, 8)          32        
_________________________________________________________________
activation_3 (Activation)    (None, 75, 3, 8)          0         
_________________________________________________________________
conv2d_4 (Conv2D)            (None, 74, 2, 8)          264       
_________________________________________________________________
batch_normalization_4 (Batch (None, 74, 2, 8)          32        
_________________________________________________________________
activation_4 (Activation)    (None, 74, 2, 8)          0         
_________________________________________________________________
max_pooling2d_2 (MaxPooling2 (None, 37, 2, 8)          0         
_________________________________________________________________
flatten_1 (Flatten)          (None, 592)               0         
_________________________________________________________________
dense_1 (Dense)              (None, 64)                37952     
_________________________________________________________________
batch_normalization_5 (Batch (None, 64)                256       
_________________________________________________________________
activation_5 (Activation)    (None, 64)                0         
_________________________________________________________________
dropout_1 (Dropout)          (None, 64)                0         
_________________________________________________________________
dense_2 (Dense)              (None, 7)                 455       
=================================================================
Total params: 62,063
Trainable params: 61,871
Non-trainable params: 192
_________________________________________________________________
None
-------------------------------- Start --------------------------------
Epoch 1/1
428/428 [==============================] - 9s 20ms/step - loss: 0.4544 - accuracy: 0.8401
107/107 [==============================] - 0s 4ms/step
…
